static/predict-model/PCH-model5-convert.tflite (tflite, 3888 bytes, 3 tensors)

arith.constant f4 [1, 100]
0.22838035 -0.1515386 -0.21484317 -0.59035856 0.304669 -0.23725964 -0.14188038 0.24308744
-0.1055029 -0.007521519 0.008365867 0.042205162 0.093746655 -0.10644826 0.020473003 0.10159026
-0.9875174 0.13592426 0.08409972 -0.58338994 0.04295702 0.017062485 0.45682257 0.20905648
0.18358701 0.09147841 -0.20452935 0.014862418 0.18716387 -0.40206987 0.17929402 0.13353068
0.12027806 -0.18190667 0.122154385 -0.28793505 0.076818556 -0.724616 0.005276665 0.06830434
0.064851195 0.252498 0.091944665 0.090654954 -0.23307231 -0.18983378 0.22672564 0.13990007
-0.16090098 0.07568079 -0.58061063 -0.124567725 0.11797104 0.3845117 -0.18206552 -1.2487173e-05
-0.004366085 0.22598024 0.33247775 0.9209698 -0.21958667 -0.11076233 0.06505507 0.240199
-0.0472569 0.13683775 -0.16535842 0.14265576 0.11616884 -0.35842282 -0.42191327 0.13639212
0.07241401 0.15049955 0.3348573 0.16618685 -0.19940975 -0.42190093 0.05998356 -0.17549516
-0.21745174 0.4833705 0.3417331 0.19381534 0.06905936 -0.05888958 -0.15612012 0.21036738
-0.178168 -0.13014585 0.02513817 -0.11599338 -0.19904593 0.08858216 0.044715315 -0.124333754
-0.043638468 -0.20505647 0.16615775 -0.19617528
00000000: 8adc 693e ef2c 1bbe d9ff 5bbe bd21 17bf
00000010: 93fd 9b3e 31f4 72be 1749 11be eaeb 783e
00000020: e811 d8bd 1377 f6bb fd10 093c 52df 2c3d
00000030: 3ffe bf3d 8c01 dabd 00b7 a73c 8e0e d03d
00000040: f1cd 7cbf bb2f 0b3e 793c ac3d 0b59 15bf
00000050: b3f3 2f3d a0c6 8b3c a6e4 e93e e712 563e
00000060: 3cfe 3b3e 0859 bb3d 2470 51be 8081 733c
00000070: e3a7 3f3e 1adc cdbe da98 373e 44bc 083e
00000080: 5854 f63d be45 3abe 142c fa3d 396c 93be
00000090: 0c53 9d3d 6f80 39bf e0e7 ac3b 25e3 8b3d
000000a0: b4d0 843d 6b47 813e 7c4d bc3d 4ea9 b93d
000000b0: 82aa 6ebe c963 42be c42a 683e f741 0f3e
000000c0: 3ac3 24be 88fe 9a3d e6a2 14bf 5d1d ffbd
000000d0: cd9a f13d b8de c43e 626f 3abe 0080 51b7
000000e0: 6011 8fbb 5d67 673e 863a aa3e adc4 6b3f
000000f0: 54db 60be 5cd7 e2bd 983b 853d baf6 753e
00000100: 7490 41bd 321f 0c3e b853 29be 5a14 123e
00000110: eee9 ed3d 3283 b7be 0405 d8be 60aa 0b3e
00000120: cc4d 943d 8e1c 1a3e 6b72 ab3e e32c 2a3e
00000130: 1232 4cbe 6603 d8be 52b1 753d 01b5 33be
00000140: abab 5ebe 577c f73e a4f7 ae3e 8777 463e
00000150: fe6e 8d3d 3336 71bd f4dd 1fbe 8c6a 573e
00000160: ac71 36be f444 05be 90ee cd3c f08d edbd
00000170: b2d2 4bbe 906a b53d 6827 373d b2a2 febd
00000180: 40be 32bd 53fa 51be 4225 2a3e 2ce2 48be

sequential_1/dense_1/Add/ReadVariableOp f4 [100]
0.0 -0.038102217 0.011797952 0.06605951 0.06426123 0.01349175 0.0508927 0.02822261
-0.0064366567 -0.032922972 -0.03719466 0.03137875 0.018560242 0.0 0.0 0.06491835
0.04168477 -0.04876053 0.027419979 -0.10935482 0.010808791 0.0 -0.023614898 -0.018282447
0.0 0.0 0.0 0.0 0.07291414 0.0590457 0.0 0.013031219
0.024557887 0.0 0.0 -0.017043449 -0.012447653 0.05889538 0.0 -0.0097216
0.0 0.0380986 0.0 0.005690319 0.054995198 0.0 0.028115872 0.025128793
0.010328458 -0.014984451 -0.098588236 -0.0270852 0.023784341 0.04869329 -0.03734647 0.0
0.0 0.028492827 -0.023766095 0.00096645876 0.0 -0.017212752 0.0 0.0
0.0 0.0 0.0 0.031964887 -0.01552316 0.031745777 -0.08804683 0.0
0.0 0.0 0.043542344 0.043962844 0.0 -0.09557068 0.017429184 0.01131368
0.0 -0.07264099 0.020366613 0.027276415 0.018716896 -0.007829031 0.0 0.0
0.015179561 -0.038578182 0.0 0.0 0.0 0.017104017 0.0 0.0
0.0 -0.012106325 0.026689883 -0.036176797
00000000: 0000 0000 1211 1cbd 324c 413c 354a 873d
00000010: 649b 833d 800c 5d3c dd74 503d 1a33 e73c
00000020: 97ea d2bb 3dda 06bd 6e59 18bd 0187 003d
00000030: a60b 983c 0000 0000 0000 0000 e9f3 843d
00000040: a6bd 2a3d 1fb9 47bd dd9f e03c 6bf5 dfbd
00000050: 5b17 313c 0000 0000 0874 c1bc 12c5 95bc
00000060: 0000 0000 0000 0000 0000 0000 0000 0000
00000070: 0254 953d e7d9 713d 0000 0000 e580 553c
00000080: 9f2d c93c 0000 0000 0000 0000 b49e 8bbc
00000090: 3ef1 4bbc 483c 713d 0000 0000 5947 1fbc
000000a0: 0000 0000 470d 1c3d 0000 0000 db75 ba3b
000000b0: a542 613d 0000 0000 4253 e63c e6da cd3c
000000c0: b138 293c 5881 75bc a1e8 c9bd c8e1 ddbc
000000d0: 61d7 c23c 9e72 473d 9df8 18bd 0000 0000
000000e0: 0000 0000 ca69 e93c 1db1 c2bc f359 7d3a
000000f0: 0000 0000 c201 8dbc 0000 0000 0000 0000
00000100: 0000 0000 0000 0000 0000 0000 9ded 023d
00000110: da54 7ebc dc07 023d e551 b4bd 0000 0000
00000120: 0000 0000 0000 0000 7559 323d 6212 343d
00000130: 0000 0000 90ba c3bd a6c7 8e3c 035d 393c
00000140: 0000 0000 cdc4 94bd e2d7 a63c ca72 df3c
00000150: 2d54 993c 5645 00bc 0000 0000 0000 0000
00000160: b2b3 783c 2804 1ebd 0000 0000 0000 0000
00000170: 0000 0000 b91d 8c3c 0000 0000 0000 0000
00000180: 0000 0000 9b59 46bc bea4 da3c 1f2e 14bd

sequential_1/dense_1/MatMul f4 [100, 4]
0.06066826 -0.23083344 0.068540424 -0.13265009 0.18609674 0.083436176 -0.047703985 0.036189184
0.24428041 -0.1690109 -0.029547019 0.06187389 -0.38315222 -0.15637608 -0.045184456 0.27022752
-0.28705877 -0.060174447 0.24615994 -0.050991744 0.2972006 -0.20485364 -0.022047354 0.061720066
0.31309706 -0.14959452 0.057422474 -0.10903462 -0.13453114 0.2018445 0.20098339 0.11770273
-0.04718121 0.056567308 -0.0705858 -0.011841025 -0.023377217 0.037940234 0.006053913 0.035880547
0.017344136 -0.05730394 0.05854908 -0.010914824 0.066576004 0.106391184 0.1243426 -0.18411933
-0.20319693 -0.11317618 0.14615425 0.12598228 0.014122218 0.116095394 -0.1828705 -0.19963533
0.0978854 -0.13025688 -0.01954253 -0.07194404 -0.124488056 0.22453429 0.06422772 -0.15923506
-0.6480333 -0.12859419 0.28056958 0.083097056 0.25775173 -0.32556418 0.18107656 0.025458546
-0.2675379 0.0908689 -0.09954092 0.18321574 0.23515572 0.19521047 0.16455874 -0.3158923
0.09394658 0.0020406567 0.1449018 0.11857172 0.21722192 -0.12023665 -0.12922323 -0.18743904
0.29269755 -0.36889997 -0.16356364 0.18783423 0.04705035 0.121550895 -0.2476524 0.05635087
-0.04297577 0.06787148 -0.21451592 0.054560006 -0.17757761 -0.17828234 0.2225059 -0.19355777
-0.16092178 -0.15506417 0.104751796 -0.11384493 -0.13071735 -0.20743129 0.049027324 -0.20083982
-0.12508781 -0.05719924 0.21831729 -0.16750865 0.20031467 -0.2643437 -0.09356619 0.16494678
-0.0028061569 -0.08876951 -0.16264726 0.0962154 0.044387344 -0.24632207 0.22133854 0.08351889
-0.14436309 0.05703117 0.2584319 0.018391674 0.09388539 -0.11927841 -0.18615037 -0.10486919
0.17346156 -0.15185554 -0.14270027 -0.08534333 0.27130023 -0.033425327 -0.08096441 0.005878668
0.12663057 -0.23802128 0.1087316 -0.20093349 -0.36661372 -0.096935794 -0.14462574 0.30980977
-0.23290206 -0.20431593 -0.11360544 0.18078339 0.063220836 0.112056896 -0.11261211 -0.12524217
-0.15078536 -0.21187726 0.01902008 -0.12797555 -0.10642985 -0.1507365 0.12748504 0.17728882
-0.01899162 -0.018068656 -0.19109687 0.0037023276 -0.31802654 0.1022347 -0.037479445 0.17910963
0.012133857 -0.3354277 0.026957631 0.1965423 0.017190874 0.0074498355 -0.18632986 0.022304773
-0.069237776 0.10147017 0.24551699 -0.0546267 0.1715832 -0.0060352767 0.108932555 -0.08319889
0.25840563 -0.18060772 -0.005769782 0.04327546 0.022002634 0.18328051 -0.039106052 -0.24764797
0.028078517 0.23274481 0.14246729 -0.24133602 0.22929926 0.034371983 -0.21168724 0.11446366
0.02746179 0.049036577 0.0808156 0.19407716 -0.3326886 -0.042097017 0.101660356 0.15286642
-0.061178863 0.19119146 0.004921621 0.114877515 -0.13925707 0.034068227 0.09824565 -0.20156468
-0.12778178 -0.059437424 0.092745095 -0.23448983 -0.2799211 0.1489707 -0.08084065 0.08530394
-0.07180749 -0.61088866 0.15989803 0.00013843106 0.13687256 0.12604065 -0.27553967 0.013545557
0.20831886 -0.11338262 -0.06870185 -0.21712652 -0.086311854 -0.07426122 0.1558308 -0.05571801
-0.21572745 -0.022031426 -0.14456572 -0.06939261 -0.15328658 -0.1435442 0.05967748 -0.16549575
00000000: 487f 783d 9a5f 6cbe ec5e 8c3d 6dd5 07be
00000010: 2590 3e3e 96e0 aa3d 4165 43bd 1c3b 143d
00000020: a524 7a3e 3211 2dbe 970c f2bc 7a6f 7d3d
00000030: 872c c4be 0d21 20be 5613 39bd 435b 8a3e
00000040: 5ef9 92be 7b79 76bd 5a11 7c3e b8dc 50bd
00000050: ad2a 983e 27c5 51be a79c b4bc 2ece 7c3d
00000060: 424e a03e 4e2f 19be d433 6b3d 8b4d dfbd
00000070: 88c2 09be 53b0 4e3e 97ce 4d3e 210e f13d
00000080: 1641 41bd 1fb3 673d 4a8f 90bd dc00 42bc
00000090: 9481 bfbc 3867 1b3d e75f c63b 7bf7 123d
000000a0: 4a15 8e3c 89b7 6abd 29d1 6f3d 17d4 32bc
000000b0: 0059 883d 9fe3 d93d 55a7 fe3d c789 3cbe
000000c0: db12 50be eac8 e7bd 76a9 153e 8001 013e
000000d0: e060 673c 6cc3 ed3d 6842 3bbe 346d 4cbe
000000e0: 2478 c83d 0f62 05be a817 a0bc 6657 93bd
000000f0: 98f3 febd 51ec 653e d389 833d 840e 23be
00000100: 83e5 25bf 32ae 03be d1a6 8f3e ca2e aa3d
00000110: 09f8 833e 59b0 a6be 226c 393e 718e d03c
00000120: bafa 88be 7919 ba3d 1cdc cbbd e89c 3b3e
00000130: a9cc 703e 41e5 473e 1682 283e a3bc a1be
00000140: 1167 c03d 8abc 053b 2361 143e bbd5 f23d
00000150: 6c6f 5e3e a23e f6bd 1853 04be 05f0 3fbe
00000160: 74dc 953e 75e0 bcbe 3a7d 27be 9e57 403e
00000170: deb7 403d adef f83d 9798 7dbe 2bd0 663d
00000180: 5c07 30bd 3400 8b3d 10aa 5bbe 507a 5f3d
00000190: e8d6 35be a58f 36be 96d8 633e 0234 46be
000001a0: aec8 24be 24c9 1ebe 1c88 d63d 8827 e9bd
000001b0: c5da 05be de68 54be e0d0 483d f4a8 4dbe
000001c0: 0517 00be c049 6abd 918e 5f3e 6387 2bbe
000001d0: 4a1f 4d3e 0f58 87be a19f bfbd cfe7 283e
000001e0: 80e7 37bb cacc b5bd 018d 26be 940c c53d
000001f0: 81cf 353d da3b 7cbe 92a6 623e f40b ab3d
00000200: ebd3 13be 8499 693d 3051 843e 23aa 963c
00000210: fc46 c03d 3d48 f4bd 349e 3ebe a8c5 d6bd
00000220: e89f 313e 0580 1bbe 0520 12be 7cc8 aebd
00000230: dde7 8a3e ffe8 08bd abd0 a5bd d7a1 c03b
00000240: 72ab 013e dabb 73be acae de3d 82c1 4dbe
00000250: cbb4 bbbe 4686 c6bd c518 14be 639f 9e3e
00000260: e17d 6ebe 3238 51be f8a9 e8bd 481f 393e
00000270: ed79 813d 167e e53d 2ea1 e6bd 7c3f 00be
00000280: 7a67 1abe 5af6 58be 00d0 9b3c 060c 03be
00000290: e5f7 d9bd ab5a 1abe 708b 023e 338b 353e
000002a0: 5094 9bbc b804 94bc e6ae 43be c0a2 723b
000002b0: 60d4 a2be 6d60 d13d 0c84 19bd 8468 373e
000002c0: 16cd 463c 2ebd abbe 40d6 dc3c 6242 493e
000002d0: e0d3 8c3c c01d f43b 41cd 3ebe 80b8 b63c
000002e0: 89cc 8dbd 98cf cf3d ce68 7b3e 3fc0 5fbd
000002f0: 82b3 2f3e 92c3 c5bb 0818 df3d 2e64 aabd
00000300: be4d 843e 3bf1 38be 7010 bdbb 9c41 313d
00000310: de3e b43c e3ad 3b3e ab2d 20bd 6e97 7dbe
00000320: eb04 e63c a854 6e3e f2e2 113e ca20 77be
00000330: 6dcd 6a3e a3c9 0c3d 8ac4 58be ec6b ea3d
00000340: 8cf7 e03c 94da 483d a682 a53d 2abc 463e
00000350: 2956 aabe ec6d 2cbd 4e33 d03d 0489 1c3e
00000360: b096 7abd b2c7 433e 8d45 a13b e744 eb3d
00000370: 6899 0ebe 208b 0b3d 0435 c93d f966 4ebe
00000380: 3ad9 02be a874 73bd 24f1 bd3d 1a1e 70be
00000390: d251 8fbe c68b 183e c88f a5bd d5b3 ae3d
000003a0: ce0f 93bd 3363 1cbf 4fbc 233e ce27 1139
000003b0: 5228 0c3e cd10 013e 8913 8dbe 2fee 5d3c
000003c0: 8a51 553e 2635 e8bd 8eb3 8cbd 6a56 5ebe
000003d0: 45c4 b0bd 4416 98bd 1c92 1f3e 9138 64bd
000003e0: a8e7 5cbe 407b b4bc 0909 14be b61d 8ebd
000003f0: 28f7 1cbe 40fd 12be 6070 743d b877 29be
